…
  desc: null
  value: 50000
lr_schedule:
  desc: null
  value: <function constant_fn.<locals>.func at 0x0000025E19640040>
max_grad_norm:
  desc: null
  value: 10
n_envs:
  desc: null
  value: 1
num_timesteps:
  desc: null
  value: 0
observation_space:
  desc: null
  value: Box([-inf -inf -inf -inf], [inf inf inf inf], (4,), float32)
optimize_memory_usage:
  desc: null
  value: 'False'
policy:
  desc: null
  value: "DQNPolicy(\n  (q_net): QNetwork(\n    (features_extractor): FlattenExtractor(\n\
    \      (flatten): Flatten(start_dim=1, end_dim=-1)\n    )\n    (q_net): Sequential(\n\
    \      (0): Linear(in_features=4, out_features=64, bias=True)\n      (1): ReLU()\n\
    \      (2): Linear(in_features=64, out_features=64, bias=True)\n      (3): ReLU()\n\
    \      (4): Linear(in_features=64, out_features=5, bias=True)\n    )\n  )\n  (q_net_target):\
    \ QNetwork(\n    (features_extractor): FlattenExtractor(\n      (flatten): Flatten(start_dim=1,\
    \ end_dim=-1)\n    )\n    (q_net): Sequential(\n      (0): Linear(in_features=4,\
    \ out_features=64, bias=True)\n      (1): ReLU()\n      (2): Linear(in_features=64,\
    \ out_features=64, bias=True)\n      (3): ReLU()\n      (4): Linear(in_features=64,\
    \ out_features=5, bias=True)\n    )\n  )\n)"
policy_class:
  desc: null
  value: <class 'stable_baselines3.dqn.policies.DQNPolicy'>
policy_kwargs:
  desc: null
  value: '{}'
policy_type:
  desc: null
  value: MlpPolicy
q_net:
  desc: null
  value: "QNetwork(\n  (features_extractor): FlattenExtractor(\n    (flatten): Flatten(start_dim=1,\
    \ end_dim=-1)\n  )\n  (q_net): Sequential(\n    (0): Linear(in_features=4, out_features=64,\
    \ bias=True)\n    (1): ReLU()\n    (2): Linear(in_features=64, out_features=64,\
    \ bias=True)\n    (3): ReLU()\n    (4): Linear(in_features=64, out_features=5,\
    \ bias=True)\n  )\n)"
q_net_target:
  desc: null
  value: "QNetwork(\n  (features_extractor): FlattenExtractor(\n    (flatten): Flatten(start_dim=1,\
    \ end_dim=-1)\n  )\n  (q_net): Sequential(\n    (0): Linear(in_features=4, out_features=64,\
    \ bias=True)\n    (1): ReLU()\n    (2): Linear(in_features=64, out_features=64,\
    \ bias=True)\n    (3): ReLU()\n    (4): Linear(in_features=64, out_features=5,\
    \ bias=True)\n  )\n)"
remove_time_limit_termination:
  desc: null
  value: 'False'
replay_buffer:
  desc: null
  value: <stable_baselines3.common.buffers.ReplayBuffer object at 0x0000025E19527BE0>
replay_buffer_class:
  desc: null
  value: <class 'stable_baselines3.common.buffers.ReplayBuffer'>
replay_buffer_kwargs:
  desc: null
  value: '{}'
sde_sample_freq:
  desc: null
…
