…
2021-11-25 19:05:34,011 INFO    MainThread:16748 [wandb_run.py:_config_callback():962] config_cb None None {'algo': 'DQN', 'policy_class': "<class 'stable_baselines3.dqn.policies.DQNPolicy'>", 'device': 'cuda', 'env': '<stable_baselines3.common.vec_env.dummy_vec_env.DummyVecEnv object at 0x0000028BBC1B7B20>', '_vec_normalize_env': 'None', 'verbose': 2, 'policy_kwargs': '{}', 'observation_space': 'Box([-inf], [inf], (1,), float32)', 'action_space': 'Discrete(5)', 'n_envs': 1, 'num_timesteps': 0, '_total_timesteps': 10000, 'eval_env': 'None', 'seed': 'None', 'action_noise': 'None', 'start_time': 1637863533.9820342, 'policy': 'DQNPolicy(\n  (q_net): QNetwork(\n    (features_extractor): FlattenExtractor(\n      (flatten): Flatten(start_dim=1, end_dim=-1)\n    )\n    (q_net): Sequential(\n      (0): Linear(in_features=1, out_features=64, bias=True)\n      (1): ReLU()\n      (2): Linear(in_features=64, out_features=64, bias=True)\n      (3): ReLU()\n      (4): Linear(in_features=64, out_features=5, bias=True)\n    )\n  )\n  (q_net_target): QNetwork(\n    (features_extractor): FlattenExtractor(\n      (flatten): Flatten(start_dim=1, end_dim=-1)\n    )\n    (q_net): Sequential(\n      (0): Linear(in_features=1, out_features=64, bias=True)\n      (1): ReLU()\n      (2): Linear(in_features=64, out_features=64, bias=True)\n      (3): ReLU()\n      (4): Linear(in_features=64, out_features=5, bias=True)\n    )\n  )\n)', 'learning_rate': 0.0001, 'tensorboard_log': 'None', 'lr_schedule': '<function constant_fn.<locals>.func at 0x0000028BBC1C7040>', '_last_obs': '[[0.]]', '_last_episode_starts': '[ True]', '_last_original_obs': 'None', '_episode_num': 0, 'use_sde': 'False', 'sde_sample_freq': -1, '_current_progress_remaining': 1, 'ep_info_buffer': 'deque([]
…
ncy=4, unit=<TrainFrequencyUnit.STEP: 'step'>)", 'actor': 'None', 'replay_buffer': '<stable_baselines3.common.buffers.ReplayBuffer object at 0x0000028BBC1B7A90>', 'use_sde_at_warmup': 'False', 'exploration_initial_eps': 1.0, 'exploration_final_eps': 0.05, 'exploration_fraction': 0.1, 'target_update_interval': 10000, 'max_grad_norm': 10, 'exploration_rate': 0.0, 'exploration_schedule': '<function get_linear_fn.<locals>.func at 0x0000028BBC1B6CA0>', 'q_net': 'QNetwork(\n  (features_extractor): FlattenExtractor(\n    (flatten): Flatten(start_dim=1, end_dim=-1)\n  )\n  (q_net): Sequential(\n    (0): Linear(in_features=1, out_features=64, bias=True)\n    (1): ReLU()\n    (2): Linear(in_features=64, out_features=64, bias=True)\n    (3): ReLU()\n    (4): Linear(in_features=64, out_features=5, bias=True)\n  )\n)', 'q_net_target': 'QNetwork(\n  (features_extractor): FlattenExtractor(\n    (flatten): Flatten(start_dim=1, end_dim=-1)\n  )\n  (q_net): Sequential(\n    (0): Linear(in_features=1, out_features=64, bias=True)\n    (1): ReLU()\n    (2): Linear(in_features=64, out_features=64, bias=True)\n    (3): ReLU()\n    (4): Linear(in_features=64, out_features=5, bias=True)\n  )\n)'}
2021-11-25 19:06:24,184 INFO    MainThread:16748 [wandb_run.py:finish():1463] finishing run raffael/unity_test/100qj8e4
2021-11-25 19:06:24,184 INFO    MainThread:16748 [wandb_run.py:_atexit_cleanup():1786] got exitcode: 0
2021-11-25 19:06:24,184 INFO    MainThread:16748 [wandb_run.py:_restore():1758] restore
2021-11-25 19:06:24,677 INFO    MainThread:16748 [wandb_run.py:_wait_for_finish():1916] got exit ret: file_counts {
…
